Loading data...
Creating splits...
Creating model...
TransfModel(
  (embedding): Embedding(63, 64)
  (encoder_layer): TransformerEncoderLayer(
    (self_attn): MultiheadAttention(
      (out_proj): NonDynamicallyQuantizableLinear(in_features=64, out_features=64, bias=True)
    )
    (linear1): Linear(in_features=64, out_features=64, bias=True)
    (dropout): Dropout(p=0.2, inplace=False)
    (linear2): Linear(in_features=64, out_features=64, bias=True)
    (norm1): LayerNorm((64,), eps=1e-05, elementwise_affine=True)
    (norm2): LayerNorm((64,), eps=1e-05, elementwise_affine=True)
    (dropout1): Dropout(p=0.2, inplace=False)
    (dropout2): Dropout(p=0.2, inplace=False)
  )
  (transformer_encoder): TransformerEncoder(
    (layers): ModuleList(
      (0-1): 2 x TransformerEncoderLayer(
        (self_attn): MultiheadAttention(
          (out_proj): NonDynamicallyQuantizableLinear(in_features=64, out_features=64, bias=True)
        )
        (linear1): Linear(in_features=64, out_features=64, bias=True)
        (dropout): Dropout(p=0.2, inplace=False)
        (linear2): Linear(in_features=64, out_features=64, bias=True)
        (norm1): LayerNorm((64,), eps=1e-05, elementwise_affine=True)
        (norm2): LayerNorm((64,), eps=1e-05, elementwise_affine=True)
        (dropout1): Dropout(p=0.2, inplace=False)
        (dropout2): Dropout(p=0.2, inplace=False)
      )
    )
  )
  (positional_encoding): PositionalEncoding(
    (dropout): Dropout(p=0.2, inplace=False)
  )
  (prediction_layer): Linear(in_features=64, out_features=63, bias=True)
  (softmax): Softmax(dim=-1)
)
Using CUDA.
Training started.
TRAIN	EPOCH:0/200	LOSS:1.858192
VAL	EPOCH:0/200	LOSS:1.507594
Model saved at ./transf_l=2_es=64_hs=64_d=0.2_e=200_lr=0.01_bs=16_ah=2/checkpoint.pytorch
TRAIN	EPOCH:1/200	LOSS:1.532447
VAL	EPOCH:1/200	LOSS:1.185104
Lowest loss model saved at ./transf_l=2_es=64_hs=64_d=0.2_e=200_lr=0.01_bs=16_ah=2/best.pytorch
…
